…
font-style: inherit;">1</span>, <span class="dv" style="color: #AD0000;
background-color: null;
font-style: inherit;">80</span>, <span class="dv" style="color: #AD0000;
background-color: null;
font-style: inherit;">80</span>))</span></code></pre></div>
<div class="cell-output cell-output-display">
<pre><code>==========================================================================================
Layer (type:depth-idx)                   Output Shape              Param #
==========================================================================================
Autoencoder_MLP                          [1, 80, 80]               --
├─Flatten: 1-1                           [1, 6400]                 --
├─Linear: 1-2                            [1, 1024]                 6,554,624
├─ReLU: 1-3                              [1, 1024]                 --
├─Linear: 1-4                            [1, 512]                  524,800
├─ReLU: 1-5                              [1, 512]                  --
├─Linear: 1-6                            [1, 1024]                 525,312
├─ReLU: 1-7                              [1, 1024]                 --
├─Linear: 1-8                            [1, 6400]                 6,560,000
==========================================================================================
Total params: 14,164,736
Trainable params: 14,164,736
Non-trainable params: 0
Total mult-adds (Units.MEGABYTES): 14.16
==========================================================================================
Input size (MB): 0.03
Forward/backward pass size (MB): 0.07
Params size (MB): 56.66
Estimated Total Size (MB): 56.76
…
font-style: inherit;">14</span>, <span class="dv" style="color: #AD0000;
background-color: null;
font-style: inherit;">80</span>, <span class="dv" style="color: #AD0000;
background-color: null;
font-style: inherit;">80</span>))</span></code></pre></div>
<div class="cell-output cell-output-display">
<pre><code>==========================================================================================
Layer (type:depth-idx)                   Output Shape              Param #
==========================================================================================
Autoencoder_CNN                          [1656, 2, 80, 80]         --
├─Encoder: 1-1                           [1656, 1024]              --
│    └─Sequential: 2-1                   [1656, 1024]              --
│    │    └─Conv2d: 3-1                  [1656, 16, 40, 40]        2,032
│    │    └─GELU: 3-2                    [1656, 16, 40, 40]        --
│    │    └─Conv2d: 3-3                  [1656, 16, 40, 40]        2,320
│    │    └─GELU: 3-4                    [1656, 16, 40, 40]        --
│    │    └─Conv2d: 3-5                  [1656, 32, 20, 20]        4,640
│    │    └─GELU: 3-6                    [1656, 32, 20, 20]        --
│    │    └─Conv2d: 3-7                  [1656, 32, 20, 20]        9,248
│    │    └─GELU: 3-8                    [1656, 32, 20, 20]        --
│    │    └─Conv2d: 3-9                  [1656, 64, 10, 10]        18,496
│    │    └─GELU: 3-10                   [1656, 64, 10, 10]        --
│    │    └─Flatten: 3-11                [1656, 6400]              --
│    │    └─Linear: 3-12                 [1656, 1024]              6,554,624
├─Decoder: 1-2                           [1656, 2, 80, 80]         --
│    └─Sequential: 2-2                   [1656, 2, 80, 80]         --
│    │    └─Linear: 3-13                 [1656, 6400]              6,560,000
│    │    └─Unflatten: 3-14              [1656, 64, 10, 10]        --
│    │    └─ConvTranspose2d: 3-15        [1656, 32, 20, 20]        18,464
│    │    └─GELU: 3-16                   [1656, 32, 20, 20]        --
│    │    └─Conv2d: 3-17                 [1656, 32, 20, 20]        9,248
│    │    └─GELU: 3-18                   [1656, 32, 20, 20]        --
│    │    └─ConvTranspose2d: 3-19        [1656, 16, 40, 40]        4,624
│    │    └─GELU: 3-20                   [1656, 16, 40, 40]        --
│    │    └─Conv2d: 3-21                 [1656, 16, 40, 40]        2,320
│    │    └─GELU: 3-22                   [1656, 16, 40, 40]        --
│    │    └─ConvTranspose2d: 3-23        [1656, 2, 80, 80]         290
==========================================================================================
Total params: 13,186,306
Trainable params: 13,186,306
Non-trainable params: 0
Total mult-adds (Units.GIGABYTES): 85.34
==========================================================================================
Input size (MB): 593.51
Forward/backward pass size (MB): 2387.61
Params size (MB): 52.75
Estimated Total Size (MB): 3033.86
…
font-style: inherit;">=</span>(<span class="dv" style="color: #AD0000;
background-color: null;
font-style: inherit;">14</span>, <span class="dv" style="color: #AD0000;
background-color: null;
font-style: inherit;">80</span>, <span class="dv" style="color: #AD0000;
background-color: null;
font-style: inherit;">80</span>)) </span></code></pre></div>
<div class="cell-output cell-output-stdout">
<pre><code>----------------------------------------------------------------
        Layer (type)               Output Shape         Param #
================================================================
            Conv2d-1           [-1, 16, 40, 40]           2,032
              GELU-2           [-1, 16, 40, 40]               0
            Conv2d-3           [-1, 16, 40, 40]           2,320
              GELU-4           [-1, 16, 40, 40]               0
            Conv2d-5           [-1, 32, 20, 20]           4,640
              GELU-6           [-1, 32, 20, 20]               0
            Conv2d-7           [-1, 32, 20, 20]           9,248
              GELU-8           [-1, 32, 20, 20]               0
            Conv2d-9           [-1, 64, 10, 10]          18,496
             GELU-10           [-1, 64, 10, 10]               0
          Flatten-11                 [-1, 6400]               0
           Linear-12                 [-1, 1024]       6,554,624
          Encoder-13                 [-1, 1024]               0
           Linear-14                 [-1, 6400]       6,560,000
        Unflatten-15           [-1, 64, 10, 10]               0
  ConvTranspose2d-16           [-1, 32, 20, 20]          18,464
             GELU-17           [-1, 32, 20, 20]               0
           Conv2d-18           [-1, 32, 20, 20]           9,248
             GELU-19           [-1, 32, 20, 20]               0
  ConvTranspose2d-20           [-1, 16, 40, 40]           4,624
             GELU-21           [-1, 16, 40, 40]               0
           Conv2d-22           [-1, 16, 40, 40]           2,320
             GELU-23           [-1, 16, 40, 40]               0
  ConvTranspose2d-24            [-1, 2, 80, 80]             290
          Decoder-25            [-1, 2, 80, 80]               0
================================================================
Total params: 13,186,306
Trainable params: 13,186,306
Non-trainable params: 0
----------------------------------------------------------------
Input size (MB): 0.34
Forward/backward pass size (MB): 2.80
Params size (MB): 50.30
Estimated Total Size (MB): 53.44
----------------------------------------------------------------</code></pre>
…
<span id="cb93-78">plt.grid(<span class="va" style="color: #111111;
background-color: null;
font-style: inherit;">True</span>) </span>
<span id="cb93-79">plt.show() </span></code></pre></div>
<div class="cell-output cell-output-stdout">
<pre><code>(1324, 14, 80, 80) (332, 14, 80, 80) (1324, 2, 80, 80) (332, 2, 80, 80)
==========================================================================================
Layer (type:depth-idx)                   Output Shape              Param #
==========================================================================================
Autoencoder_CNN                          [1656, 2, 80, 80]         --
├─Encoder: 1-1                           [1656, 2048]              --
│    └─Sequential: 2-1                   [1656, 2048]              --
│    │    └─Conv2d: 3-1                  [1656, 64, 40, 40]        8,128
│    │    └─GELU: 3-2                    [1656, 64, 40, 40]        --
│    │    └─Conv2d: 3-3                  [1656, 64, 40, 40]        36,928
│    │    └─GELU: 3-4                    [1656, 64, 40, 40]        --
│    │    └─Conv2d: 3-5                  [1656, 128, 20, 20]       73,856
│    │    └─GELU: 3-6                    [1656, 128, 20, 20]       --
│    │    └─Conv2d: 3-7                  [1656, 128, 20, 20]       147,584
│    │    └─GELU: 3-8                    [1656, 128, 20, 20]       --
│    │    └─Conv2d: 3-9                  [1656, 256, 10, 10]       295,168
│    │    └─GELU: 3-10                   [1656, 256, 10, 10]       --
│    │    └─Flatten: 3-11                [1656, 25600]             --
│    │    └─Linear: 3-12                 [1656, 2048]              52,430,848
├─Decoder: 1-2                           [1656, 2, 80, 80]         --
│    └─Sequential: 2-2                   [1656, 2, 80, 80]         --
│    │    └─Linear: 3-13                 [1656, 25600]             52,454,400
│    │    └─Unflatten: 3-14              [1656, 256, 10, 10]       --
│    │    └─ConvTranspose2d: 3-15        [1656, 128, 20, 20]       295,040
│    │    └─GELU: 3-16                   [1656, 128, 20, 20]       --
│    │    └─Conv2d: 3-17                 [1656, 128, 20, 20]       147,584
│    │    └─GELU: 3-18                   [1656, 128, 20, 20]       --
│    │    └─ConvTranspose2d: 3-19        [1656, 64, 40, 40]        73,792
│    │    └─GELU: 3-20                   [1656, 64, 40, 40]        --
│    │    └─Conv2d: 3-21                 [1656, 64, 40, 40]        36,928
│    │    └─GELU: 3-22                   [1656, 64, 40, 40]        --
│    │    └─ConvTranspose2d: 3-23        [1656, 2, 80, 80]         1,154
==========================================================================================
Total params: 106,001,410
Trainable params: 106,001,410
Non-trainable params: 0
Total mult-adds (Units.TERABYTES): 1.09
==========================================================================================
Input size (MB): 593.51
Forward/backward pass size (MB): 9014.58
Params size (MB): 424.01
Estimated Total Size (MB): 10032.09
…
font-style: inherit;">1</span>, <span class="dv" style="color: #AD0000;
background-color: null;
font-style: inherit;">80</span>, <span class="dv" style="color: #AD0000;
background-color: null;
font-style: inherit;">80</span>))</span></code></pre></div>
<div class="cell-output cell-output-display">
<pre><code>==========================================================================================
Layer (type:depth-idx)                   Output Shape              Param #
==========================================================================================
Autoencoder_CNN                          [1000, 1, 80, 80]         --
├─Encoder: 1-1                           [1000, 512]               --
│    └─Sequential: 2-1                   [1000, 512]               --
│    │    └─Conv2d: 3-1                  [1000, 8, 40, 40]         80
│    │    └─GELU: 3-2                    [1000, 8, 40, 40]         --
│    │    └─Conv2d: 3-3                  [1000, 8, 40, 40]         584
│    │    └─GELU: 3-4                    [1000, 8, 40, 40]         --
│    │    └─Conv2d: 3-5                  [1000, 16, 20, 20]        1,168
│    │    └─GELU: 3-6                    [1000, 16, 20, 20]        --
│    │    └─Conv2d: 3-7                  [1000, 16, 20, 20]        2,320
│    │    └─GELU: 3-8                    [1000, 16, 20, 20]        --
│    │    └─Conv2d: 3-9                  [1000, 32, 10, 10]        4,640
│    │    └─GELU: 3-10                   [1000, 32, 10, 10]        --
│    │    └─Flatten: 3-11                [1000, 3200]              --
│    │    └─Linear: 3-12                 [1000, 512]               1,638,912
├─Decoder: 1-2                           [1000, 1, 80, 80]         --
│    └─Sequential: 2-2                   [1000, 1, 80, 80]         --
│    │    └─Linear: 3-13                 [1000, 3200]              1,641,600
│    │    └─Unflatten: 3-14              [1000, 32, 10, 10]        --
│    │    └─ConvTranspose2d: 3-15        [1000, 16, 20, 20]        4,624
│    │    └─GELU: 3-16                   [1000, 16, 20, 20]        --
│    │    └─Conv2d: 3-17                 [1000, 16, 20, 20]        2,320
│    │    └─GELU: 3-18                   [1000, 16, 20, 20]        --
│    │    └─ConvTranspose2d: 3-19        [1000, 8, 40, 40]         1,160
│    │    └─GELU: 3-20                   [1000, 8, 40, 40]         --
│    │    └─Conv2d: 3-21                 [1000, 8, 40, 40]         584
│    │    └─GELU: 3-22                   [1000, 8, 40, 40]         --
│    │    └─ConvTranspose2d: 3-23        [1000, 1, 80, 80]         73
==========================================================================================
Total params: 3,298,065
Trainable params: 3,298,065
Non-trainable params: 0
Total mult-adds (Units.GIGABYTES): 12.24
==========================================================================================
Input size (MB): 25.60
Forward/backward pass size (MB): 720.90
Params size (MB): 13.19
Estimated Total Size (MB): 759.69
…
<span id="cb796-98">plt.grid(<span class="va" style="color: #111111;
background-color: null;
font-style: inherit;">True</span>) </span>
<span id="cb796-99">plt.show() </span></code></pre></div>
<div class="cell-output cell-output-stdout">
<pre><code>(1324, 4, 80, 80) (332, 4, 80, 80) (1324, 2, 80, 80) (332, 2, 80, 80)
==========================================================================================
Layer (type:depth-idx)                   Output Shape              Param #
==========================================================================================
Autoencoder_CNN                          [1656, 2, 80, 80]         --
├─Encoder: 1-1                           [1656, 2048]              --
│    └─Sequential: 2-1                   [1656, 2048]              --
│    │    └─Conv2d: 3-1                  [1656, 64, 40, 40]        2,368
│    │    └─GELU: 3-2                    [1656, 64, 40, 40]        --
│    │    └─Conv2d: 3-3                  [1656, 64, 40, 40]        36,928
│    │    └─GELU: 3-4                    [1656, 64, 40, 40]        --
│    │    └─Conv2d: 3-5                  [1656, 128, 20, 20]       73,856
│    │    └─GELU: 3-6                    [1656, 128, 20, 20]       --
│    │    └─Conv2d: 3-7                  [1656, 128, 20, 20]       147,584
│    │    └─GELU: 3-8                    [1656, 128, 20, 20]       --
│    │    └─Conv2d: 3-9                  [1656, 256, 10, 10]       295,168
│    │    └─GELU: 3-10                   [1656, 256, 10, 10]       --
│    │    └─Flatten: 3-11                [1656, 25600]             --
│    │    └─Linear: 3-12                 [1656, 2048]              52,430,848
├─Decoder: 1-2                           [1656, 2, 80, 80]         --
│    └─Sequential: 2-2                   [1656, 2, 80, 80]         --
│    │    └─Linear: 3-13                 [1656, 25600]             52,454,400
│    │    └─Unflatten: 3-14              [1656, 256, 10, 10]       --
│    │    └─ConvTranspose2d: 3-15        [1656, 128, 20, 20]       295,040
│    │    └─GELU: 3-16                   [1656, 128, 20, 20]       --
│    │    └─Conv2d: 3-17                 [1656, 128, 20, 20]       147,584
│    │    └─GELU: 3-18                   [1656, 128, 20, 20]       --
│    │    └─ConvTranspose2d: 3-19        [1656, 64, 40, 40]        73,792
│    │    └─GELU: 3-20                   [1656, 64, 40, 40]        --
│    │    └─Conv2d: 3-21                 [1656, 64, 40, 40]        36,928
│    │    └─GELU: 3-22                   [1656, 64, 40, 40]        --
│    │    └─ConvTranspose2d: 3-23        [1656, 2, 80, 80]         1,154
==========================================================================================
Total params: 105,995,650
Trainable params: 105,995,650
Non-trainable params: 0
Total mult-adds (Units.TERABYTES): 1.07
==========================================================================================
Input size (MB): 169.57
Forward/backward pass size (MB): 9014.58
Params size (MB): 423.98
Estimated Total Size (MB): 9608.13
…
font-style: inherit;">14</span>, <span class="dv" style="color: #AD0000;
background-color: null;
font-style: inherit;">80</span>, <span class="dv" style="color: #AD0000;
background-color: null;
font-style: inherit;">80</span>))</span></code></pre></div>
<div class="cell-output cell-output-display">
<pre><code>==========================================================================================
Layer (type:depth-idx)                   Output Shape              Param #
==========================================================================================
Autoencoder_UNET                         [1656, 2, 80, 80]         --
├─Encoder: 1-1                           --                        --
│    └─Sequential: 2-1                   --                        --
│    │    └─Conv2d: 3-1                  [1656, 16, 40, 40]        2,032
│    │    └─GELU: 3-2                    [1656, 16, 40, 40]        --
│    │    └─Conv2d: 3-3                  [1656, 16, 40, 40]        2,320
│    │    └─GELU: 3-4                    [1656, 16, 40, 40]        --
│    │    └─Conv2d: 3-5                  [1656, 32, 20, 20]        4,640
│    │    └─GELU: 3-6                    [1656, 32, 20, 20]        --
│    │    └─Conv2d: 3-7                  [1656, 32, 20, 20]        9,248
│    │    └─GELU: 3-8                    [1656, 32, 20, 20]        --
│    │    └─Conv2d: 3-9                  [1656, 64, 10, 10]        18,496
│    │    └─GELU: 3-10                   [1656, 64, 10, 10]        --
│    │    └─Flatten: 3-11                [1656, 6400]              --
│    │    └─Linear: 3-12                 [1656, 1024]              6,554,624
├─Decoder: 1-2                           --                        --
│    └─Sequential: 2-2                   --                        --
│    │    └─Linear: 3-13                 [1656, 6400]              6,560,000
│    │    └─Unflatten: 3-14              [1656, 64, 10, 10]        --
│    │    └─ConvTranspose2d: 3-15        [1656, 32, 20, 20]        18,464
│    │    └─GELU: 3-16                   [1656, 32, 20, 20]        --
│    │    └─Conv2d: 3-17                 [1656, 32, 20, 20]        9,248
│    │    └─GELU: 3-18                   [1656, 32, 20, 20]        --
│    │    └─ConvTranspose2d: 3-19        [1656, 16, 40, 40]        4,624
│    │    └─GELU: 3-20                   [1656, 16, 40, 40]        --
│    │    └─Conv2d: 3-21                 [1656, 16, 40, 40]        2,320
│    │    └─GELU: 3-22                   [1656, 16, 40, 40]        --
│    │    └─ConvTranspose2d: 3-23        [1656, 2, 80, 80]         290
==========================================================================================
Total params: 13,186,306
Trainable params: 13,186,306
Non-trainable params: 0
Total mult-adds (Units.GIGABYTES): 85.34
==========================================================================================
Input size (MB): 593.51
Forward/backward pass size (MB): 2387.61
Params size (MB): 52.75
Estimated Total Size (MB): 3033.86
…
font-style: inherit;">=</span>(<span class="dv" style="color: #AD0000;
background-color: null;
font-style: inherit;">14</span>, <span class="dv" style="color: #AD0000;
background-color: null;
font-style: inherit;">80</span>, <span class="dv" style="color: #AD0000;
background-color: null;
font-style: inherit;">80</span>)) </span></code></pre></div>
<div class="cell-output cell-output-stdout">
<pre><code>----------------------------------------------------------------
        Layer (type)               Output Shape         Param #
================================================================
            Conv2d-1           [-1, 16, 40, 40]           2,032
              GELU-2           [-1, 16, 40, 40]               0
            Conv2d-3           [-1, 16, 40, 40]           2,320
              GELU-4           [-1, 16, 40, 40]               0
            Conv2d-5           [-1, 32, 20, 20]           4,640
              GELU-6           [-1, 32, 20, 20]               0
            Conv2d-7           [-1, 32, 20, 20]           9,248
              GELU-8           [-1, 32, 20, 20]               0
            Conv2d-9           [-1, 64, 10, 10]          18,496
             GELU-10           [-1, 64, 10, 10]               0
          Flatten-11                 [-1, 6400]               0
           Linear-12                 [-1, 1024]       6,554,624
           Linear-13                 [-1, 6400]       6,560,000
        Unflatten-14           [-1, 64, 10, 10]               0
  ConvTranspose2d-15           [-1, 32, 20, 20]          18,464
             GELU-16           [-1, 32, 20, 20]               0
           Conv2d-17           [-1, 32, 20, 20]           9,248
             GELU-18           [-1, 32, 20, 20]               0
  ConvTranspose2d-19           [-1, 16, 40, 40]           4,624
             GELU-20           [-1, 16, 40, 40]               0
           Conv2d-21           [-1, 16, 40, 40]           2,320
             GELU-22           [-1, 16, 40, 40]               0
  ConvTranspose2d-23            [-1, 2, 80, 80]             290
================================================================
Total params: 13,186,306
Trainable params: 13,186,306
Non-trainable params: 0
----------------------------------------------------------------
Input size (MB): 0.34
Forward/backward pass size (MB): 2.69
Params size (MB): 50.30
Estimated Total Size (MB): 53.34
----------------------------------------------------------------</code></pre>
…
<span id="cb820-78">plt.grid(<span class="va" style="color: #111111;
background-color: null;
font-style: inherit;">True</span>) </span>
<span id="cb820-79">plt.show() </span></code></pre></div>
<div class="cell-output cell-output-stdout">
<pre><code>(1324, 14, 80, 80) (332, 14, 80, 80) (1324, 2, 80, 80) (332, 2, 80, 80)
==========================================================================================
Layer (type:depth-idx)                   Output Shape              Param #
==========================================================================================
Autoencoder_UNET                         [1656, 2, 80, 80]         --
├─Encoder: 1-1                           --                        --
│    └─Sequential: 2-1                   --                        --
│    │    └─Conv2d: 3-1                  [1656, 64, 40, 40]        8,128
│    │    └─GELU: 3-2                    [1656, 64, 40, 40]        --
│    │    └─Conv2d: 3-3                  [1656, 64, 40, 40]        36,928
│    │    └─GELU: 3-4                    [1656, 64, 40, 40]        --
│    │    └─Conv2d: 3-5                  [1656, 128, 20, 20]       73,856
│    │    └─GELU: 3-6                    [1656, 128, 20, 20]       --
│    │    └─Conv2d: 3-7                  [1656, 128, 20, 20]       147,584
│    │    └─GELU: 3-8                    [1656, 128, 20, 20]       --
│    │    └─Conv2d: 3-9                  [1656, 256, 10, 10]       295,168
│    │    └─GELU: 3-10                   [1656, 256, 10, 10]       --
│    │    └─Flatten: 3-11                [1656, 25600]             --
│    │    └─Linear: 3-12                 [1656, 2048]              52,430,848
├─Decoder: 1-2                           --                        --
│    └─Sequential: 2-2                   --                        --
│    │    └─Linear: 3-13                 [1656, 25600]             52,454,400
│    │    └─Unflatten: 3-14              [1656, 256, 10, 10]       --
│    │    └─ConvTranspose2d: 3-15        [1656, 128, 20, 20]       295,040
│    │    └─GELU: 3-16                   [1656, 128, 20, 20]       --
│    │    └─Conv2d: 3-17                 [1656, 128, 20, 20]       147,584
│    │    └─GELU: 3-18                   [1656, 128, 20, 20]       --
│    │    └─ConvTranspose2d: 3-19        [1656, 64, 40, 40]        73,792
│    │    └─GELU: 3-20                   [1656, 64, 40, 40]        --
│    │    └─Conv2d: 3-21                 [1656, 64, 40, 40]        36,928
│    │    └─GELU: 3-22                   [1656, 64, 40, 40]        --
│    │    └─ConvTranspose2d: 3-23        [1656, 2, 80, 80]         1,154
==========================================================================================
Total params: 106,001,410
Trainable params: 106,001,410
Non-trainable params: 0
Total mult-adds (Units.TERABYTES): 1.09
==========================================================================================
Input size (MB): 593.51
Forward/backward pass size (MB): 9014.58
Params size (MB): 424.01
Estimated Total Size (MB): 10032.09
…
font-style: inherit;">=</span>(<span class="dv" style="color: #AD0000;
background-color: null;
font-style: inherit;">1</span>, <span class="dv" style="color: #AD0000;
background-color: null;
font-style: inherit;">80</span>, <span class="dv" style="color: #AD0000;
background-color: null;
font-style: inherit;">80</span>))</span></code></pre></div>
<div class="cell-output cell-output-stdout">
<pre><code>----------------------------------------------------------------
        Layer (type)               Output Shape         Param #
================================================================
            Conv2d-1            [-1, 8, 40, 40]              80
              GELU-2            [-1, 8, 40, 40]               0
            Conv2d-3            [-1, 8, 40, 40]             584
              GELU-4            [-1, 8, 40, 40]               0
            Conv2d-5           [-1, 16, 20, 20]           1,168
              GELU-6           [-1, 16, 20, 20]               0
            Conv2d-7           [-1, 16, 20, 20]           2,320
              GELU-8           [-1, 16, 20, 20]               0
            Conv2d-9           [-1, 32, 10, 10]           4,640
             GELU-10           [-1, 32, 10, 10]               0
          Flatten-11                 [-1, 3200]               0
           Linear-12                  [-1, 512]       1,638,912
           Linear-13                 [-1, 3200]       1,641,600
        Unflatten-14           [-1, 32, 10, 10]               0
  ConvTranspose2d-15           [-1, 16, 20, 20]           4,624
             GELU-16           [-1, 16, 20, 20]               0
           Conv2d-17           [-1, 16, 20, 20]           2,320
             GELU-18           [-1, 16, 20, 20]               0
  ConvTranspose2d-19            [-1, 8, 40, 40]           1,160
             GELU-20            [-1, 8, 40, 40]               0
           Conv2d-21            [-1, 8, 40, 40]             584
             GELU-22            [-1, 8, 40, 40]               0
  ConvTranspose2d-23            [-1, 1, 80, 80]              73
================================================================
Total params: 3,298,065
Trainable params: 3,298,065
Non-trainable params: 0
----------------------------------------------------------------
Input size (MB): 0.02
Forward/backward pass size (MB): 1.35
Params size (MB): 12.58
Estimated Total Size (MB): 13.95
----------------------------------------------------------------</code></pre>
…
font-style: inherit;">=</span>(<span class="dv" style="color: #AD0000;
background-color: null;
font-style: inherit;">1</span>, <span class="dv" style="color: #AD0000;
background-color: null;
font-style: inherit;">80</span>, <span class="dv" style="color: #AD0000;
background-color: null;
font-style: inherit;">80</span>)) </span></code></pre></div>
<div class="cell-output cell-output-stdout">
<pre><code>----------------------------------------------------------------
        Layer (type)               Output Shape         Param #
================================================================
            Conv2d-1            [-1, 8, 40, 40]              80
              GELU-2            [-1, 8, 40, 40]               0
            Conv2d-3            [-1, 8, 40, 40]             584
              GELU-4            [-1, 8, 40, 40]               0
            Conv2d-5           [-1, 16, 20, 20]           1,168
              GELU-6           [-1, 16, 20, 20]               0
            Conv2d-7           [-1, 16, 20, 20]           2,320
              GELU-8           [-1, 16, 20, 20]               0
            Conv2d-9           [-1, 32, 10, 10]           4,640
             GELU-10           [-1, 32, 10, 10]               0
          Flatten-11                 [-1, 3200]               0
           Linear-12                 [-1, 1024]       3,277,824
          Encoder-13                 [-1, 1024]               0
           Linear-14                 [-1, 3200]       3,280,000
        Unflatten-15           [-1, 32, 10, 10]               0
  ConvTranspose2d-16           [-1, 16, 20, 20]           4,624
             GELU-17           [-1, 16, 20, 20]               0
           Conv2d-18           [-1, 16, 20, 20]           2,320
             GELU-19           [-1, 16, 20, 20]               0
  ConvTranspose2d-20            [-1, 8, 40, 40]           1,160
             GELU-21            [-1, 8, 40, 40]               0
           Conv2d-22            [-1, 8, 40, 40]             584
             GELU-23            [-1, 8, 40, 40]               0
  ConvTranspose2d-24            [-1, 1, 80, 80]              73
          Decoder-25            [-1, 1, 80, 80]               0
================================================================
Total params: 6,575,377
Trainable params: 6,575,377
Non-trainable params: 0
----------------------------------------------------------------
Input size (MB): 0.02
Forward/backward pass size (MB): 1.41
Params size (MB): 25.08
Estimated Total Size (MB): 26.51
----------------------------------------------------------------</code></pre>
…
<span id="cb1529-78">plt.grid(<span class="va" style="color: #111111;
background-color: null;
font-style: inherit;">True</span>) </span>
<span id="cb1529-79">plt.show() </span></code></pre></div>
<div class="cell-output cell-output-stdout">
<pre><code>(1324, 4, 80, 80) (332, 4, 80, 80) (1324, 2, 80, 80) (332, 2, 80, 80)
==========================================================================================
Layer (type:depth-idx)                   Output Shape              Param #
==========================================================================================
Autoencoder_UNET                         [1656, 2, 80, 80]         --
├─Encoder: 1-1                           --                        --
│    └─Sequential: 2-1                   --                        --
│    │    └─Conv2d: 3-1                  [1656, 64, 40, 40]        2,368
│    │    └─GELU: 3-2                    [1656, 64, 40, 40]        --
│    │    └─Conv2d: 3-3                  [1656, 64, 40, 40]        36,928
│    │    └─GELU: 3-4                    [1656, 64, 40, 40]        --
│    │    └─Conv2d: 3-5                  [1656, 128, 20, 20]       73,856
│    │    └─GELU: 3-6                    [1656, 128, 20, 20]       --
│    │    └─Conv2d: 3-7                  [1656, 128, 20, 20]       147,584
│    │    └─GELU: 3-8                    [1656, 128, 20, 20]       --
│    │    └─Conv2d: 3-9                  [1656, 256, 10, 10]       295,168
│    │    └─GELU: 3-10                   [1656, 256, 10, 10]       --
│    │    └─Flatten: 3-11                [1656, 25600]             --
│    │    └─Linear: 3-12                 [1656, 2048]              52,430,848
├─Decoder: 1-2                           --                        --
│    └─Sequential: 2-2                   --                        --
│    │    └─Linear: 3-13                 [1656, 25600]             52,454,400
│    │    └─Unflatten: 3-14              [1656, 256, 10, 10]       --
│    │    └─ConvTranspose2d: 3-15        [1656, 128, 20, 20]       295,040
│    │    └─GELU: 3-16                   [1656, 128, 20, 20]       --
│    │    └─Conv2d: 3-17                 [1656, 128, 20, 20]       147,584
│    │    └─GELU: 3-18                   [1656, 128, 20, 20]       --
│    │    └─ConvTranspose2d: 3-19        [1656, 64, 40, 40]        73,792
│    │    └─GELU: 3-20                   [1656, 64, 40, 40]        --
│    │    └─Conv2d: 3-21                 [1656, 64, 40, 40]        36,928
│    │    └─GELU: 3-22                   [1656, 64, 40, 40]        --
│    │    └─ConvTranspose2d: 3-23        [1656, 2, 80, 80]         1,154
==========================================================================================
Total params: 105,995,650
Trainable params: 105,995,650
Non-trainable params: 0
Total mult-adds (Units.TERABYTES): 1.07
==========================================================================================
Input size (MB): 169.57
Forward/backward pass size (MB): 9014.58
Params size (MB): 423.98
Estimated Total Size (MB): 9608.13
…
font-style: inherit;">#32*32 =1024 is the image size lentgh, 2 is x,y coordinate</span></span>
<span id="cb16-4"><span class="co" style="color: #5E5E5E;
background-color: null;
font-style: inherit;"># outputs 6: 1,2,3 mean of each channel and 4,5,6 are log sigma of each channel</span></span></code></pre></div>
<div class="cell-output cell-output-display">
<pre><code>==========================================================================================
Layer (type:depth-idx)                   Output Shape              Param #
==========================================================================================
TargetNet                                [1024, 6]                 --
├─Linear: 1-1                            [1024, 128]               384
├─Linear: 1-2                            [1024, 128]               16,512
├─Linear: 1-3                            [1024, 128]               16,512
├─Linear: 1-4                            [1024, 128]               16,512
├─Linear: 1-5                            [1024, 6]                 774
==========================================================================================
Total params: 50,694
Trainable params: 50,694
Non-trainable params: 0
Total mult-adds (M): 51.91
==========================================================================================
Input size (MB): 0.01
Forward/backward pass size (MB): 4.24
Params size (MB): 0.20
Estimated Total Size (MB): 4.45
==========================================================================================</code></pre>
…
font-style: inherit;">=</span>(img_size<span class="op" style="color: #5E5E5E;
background-color: null;
font-style: inherit;">*</span>img_size,<span class="dv" style="color: #AD0000;
background-color: null;
font-style: inherit;">130</span>))</span></code></pre></div>
<div class="cell-output cell-output-display">
<pre><code>==========================================================================================
Layer (type:depth-idx)                   Output Shape              Param #
==========================================================================================
Decoder                                  [1024, 6]                 --
├─Linear: 1-1                            [1024, 256]               33,536
├─Linear: 1-2                            [1024, 256]               65,792
├─Linear: 1-3                            [1024, 256]               65,792
├─Linear: 1-4                            [1024, 256]               65,792
├─Linear: 1-5                            [1024, 6]                 1,542
==========================================================================================
Total params: 232,454
Trainable params: 232,454
Non-trainable params: 0
Total mult-adds (M): 238.03
==========================================================================================
Input size (MB): 0.53
Forward/backward pass size (MB): 8.44
Params size (MB): 0.93
Estimated Total Size (MB): 9.90
==========================================================================================</code></pre>
…
