…
el.compile(optimizer='adam', loss='sparse_categorical_crossentropy', metrics=['accuracy'])\n\n# Train CNN model\ncnn_model.fit(x_train_cnn, y_train, epochs=10, batch_size=32, validation_data=(x_test_cnn, y_test))\n\n# Evaluate CNN model\ncnn_loss, cnn_accuracy = cnn_model.evaluate(x_test_cnn, y_test)\nprint(\"CNN Accuracy:\", cnn_accuracy)\n\nModel: \"sequential_3\"\n_________________________________________________________________\n Layer (type)                Output Shape              Param #   \n=================================================================\n conv2d_1 (Conv2D)           (None, 26, 26, 32)        320       \n                                                                 \n max_pooling2d_1 (MaxPoolin  (None, 13, 13, 32)        0         \n g2D)                                                            \n                                                                 \n flatten_1 (Flatten)         (None, 5408)              0         \n                                                                 \n dense_8 (Dense)             (None, 128)               692352    \n                                                                 \n dense_9 (Dense)             (None, 10)                1290      \n                                                                 \n=================================================================\nTotal params: 693962 (2.65 MB)\nTrainable params: 693962 (2.65 MB)\nNon-trainable params: 0 (0.00 Byte)\n_________________________________________________________________\nEpoch 1/10\n1875/1875 [==============================] - 36s 19ms/step - loss: 0.1383 
…
nerator = Generator((7,7,1))\ngenerator.summary()\n\nModel: \"model\"\n__________________________________________________________________________________________________\n Layer (type)                Output Shape                 Param #   Connected to                  \n==================================================================================================\n input_1 (InputLayer)        [(None, 7, 7, 1)]            0         []                            \n                                                                                                  \n conv2d_2 (Conv2D)           (None, 7, 7, 32)             320       ['input_1[0][0]']             \n                                                                                                  \n batch_normalization (Batch  (None, 7, 7, 32)             128       ['conv2d_2[0][0]']            \n Normalization)                                                                                   \n                                                                                                  \n activation (Activation)     (None, 7, 7, 32)             0         ['batch_normalization[0][0]'] \n                                                                                                  \n conv2d_3 (Conv2D)           (None, 7, 7, 32)             9248      ['activation[0][0]']          \n                                                                                                  \n batch_normalization_1 (Bat  (None, 7, 7, 32)             128       ['conv2d_3[0][0]']            \n chNormalization)                                                                                 \n                                                                                                  \n activation_1 (Activation)   (None, 7, 7, 32)             0         ['batch_normalization_1[0][0]'\n                                                                    ]                             \n                                                                                                  \n add (Add)                   (None, 7, 7, 32)             0         ['activation[0][0]',          \n                                                                     'activation_1[0][0]']        \n                                                                                                  \n conv2d_4 (Conv2D)           (None, 7, 7, 32)             9248      ['add[0][0]']                 \n                                                                                                  \n batch_normalization_2 (Bat  (None, 7, 7, 32)             128       ['conv2d_4[0][0]']            \n chNormalization)                                                                                 \n                                                                                                  \n activation_2 (Activation)   (None, 7, 7, 32)             0         ['batch_normalization_2[0][0]'\n                                                                    ]                             \n                                                                                                  \n add_1 (Add)                 (None, 7, 7, 32)             0         ['add[0][0]',                 \n                                                                     'activation_2[0][0]']        \n                                                                                                  \n activation_3 (Activation)   (None, 7, 7, 32)             0         ['add_1[0][0]']               \n                                                                                                  \n up_sampling2d (UpSampling2  (None, 14, 14, 32)           0         ['activation_3[0][0]']        \n D)                                                                                               \n                                                                                                  \n conv2d_5 (Conv2D)           (None, 14, 14, 32)           9248      ['up_sampling2d[0][0]']       \n                                                                                                  \n batch_normalization_3 (Bat  (None, 14, 14, 32)           128       ['conv2d_5[0][0]']            \n chNormalization)                                                                                 \n                                                                                                  \n activation_4 (Activation)   (None, 14, 14, 32)           0         ['batch_normalization_3[0][0]'\n                                                                    ]                             \n                                                                                                  \n conv2d_6 (Conv2D)           (None, 14, 14, 32)           9248      ['activation_4[0][0]']        \n                                                                                                  \n batch_normalization_4 (Bat  (None, 14, 14, 32)           128       ['conv2d_6[0][0]']            \n chNormalization)                                                                                 \n                                                                                                  \n activation_5 (Activation)   (None, 14, 14, 32)           0         ['batch_normalization_4[0][0]'\n                                                                    ]                             \n                                                                                                  \n add_2 (Add)                 (None, 14, 14, 32)           0         ['activation_4[0][0]',        \n                                                                     'activation_5[0][0]']        \n                                                                                                  \n conv2d_7 (Conv2D)           (None, 14, 14, 32)           9248      ['add_2[0][0]']               \n                                                                                                  \n batch_normalization_5 (Bat  (None, 14, 14, 32)           128       ['conv2d_7[0][0]']            \n chNormalization)                                                                                 \n                                                                                                  \n activation_6 (Activation)   (None, 14, 14, 32)           0         ['batch_normalization_5[0][0]'\n                                                                    ]                             \n                                                                                                  \n add_3 (Add)                 (None, 14, 14, 32)           0         ['add_2[0][0]',               \n                                                                     'activation_6[0][0]']        \n                                                                                                  \n activation_7 (Activation)   (None, 14, 14, 32)           0         ['add_3[0][0]']               \n                                                                                                  \n up_sampling2d_1 (UpSamplin  (None, 28, 28, 32)           0         ['activation_7[0][0]']        \n g2D)                                                                                             \n                                                                                                  \n conv2d_8 (Conv2D)           (None, 28, 28, 32)           9248      ['up_sampling2d_1[0][0]']     \n                                                                                                  \n batch_normalization_6 (Bat  (None, 28, 28, 32)           128       ['conv2d_8[0][0]']            \n chNormalization)                                                                                 \n                                                                                                  \n activation_8 (Activation)   (None, 28, 28, 32)           0         ['batch_normalization_6[0][0]'\n                                                                    ]                             \n                                                                                                  \n conv2d_9 (Conv2D)           (None, 28, 28, 1)            289       ['activation_8[0][0]']        \n                                                                                                  \n batch_normalization_7 (Bat  (None, 28, 28, 1)            4         ['conv2d_9[0][0]']            \n chNormalization)                                                                                 \n                                                                                                  \n activation_9 (Activation)   (None, 28, 28, 1)            0         ['batch_normalization_7[0][0]'\n                                                                    ]                             \n                                                                                                  \n==================================================================================================\nTotal params: 56997 (222.64 KB)\nTrainable params: 56547 (2
…
_________________________________________________________________\n\n\n\n# Creating a discriminator model\n# Showing the summary of discriminator\ndiscriminator = Discriminator((28,28,1))\ndiscriminator.summary()\n\nModel: \"model_1\"\n_________________________________________________________________\n Layer (type)                Output Shape              Param #   \n=================================================================\n input_2 (InputLayer)        [(None, 28, 28, 1)]       0         \n                                                                 \n conv2d_10 (Conv2D)          (None, 28, 28, 32)        320       \n                                                                 \n activation_10 (Activation)  (None, 28, 28, 32)        0         \n                                                                 \n conv2d_11 (Conv2D)          (None, 28, 28, 64)        18496     \n                                                                 \n batch_normalization_8 (Bat  (None, 28, 28, 64)        256       \n chNormalization)                                                \n                                                                 \n activation_11 (Activation)  (None, 28, 28, 64)        0         \n                                                                 \n=================================================================\nTotal params: 19072 (74.50 KB)\nTrainable params: 18944 (74.00 KB)\nNon-trainable params: 128 (512.00 Byte)\n_________________________________________________________________\n\n\n\n# training with batch size of 100 and for 50 epochs\ntrain(X_train, Y_tra
…
mport summary\ntargetnet = TargetNet(activation=torch.relu, n_out=6, activation_scale=1).to(device)\nsummary(targetnet, input_size=(img_size* img_size, 2)) #32*32 =1024 is the image size lentgh, 2 is x,y coordinate\n# outputs 6: 1,2,3 mean of each channel and 4,5,6 are log sigma of each channel\n\n==========================================================================================\nLayer (type:depth-idx)                   Output Shape              Param #\n==========================================================================================\nTargetNet                                [1024, 6]                 --\n├─Linear: 1-1                            [1024, 128]               384\n├─Linear: 1-2                            [1024, 128]               16,512\n├─Linear: 1-3                            [1024, 128]               16,512\n├─Linear: 1-4                            [1024, 128]               16,512\n├─Linear: 1-5                            [1024, 6]                 774\n==========================================================================================\nTotal params: 50,694\nTrainable params: 50,694\nNon-trainable params: 0\nTotal mult-adds (M): 51.91\n==========================================================================================\nInput size (MB): 0.01\nForward/backward pass size (MB): 4.24\nParams size (MB): 0.20\nEstimated Total Size (MB): 
…
_features=256, bias=True)\n  (linear2): Linear(in_features=256, out_features=256, bias=True)\n  (linear3): Linear(in_features=256, out_features=128, bias=True)\n)\n\n\n\ndecoder = Decoder(130, 256, 6, activation=torch.relu,activation_scale=1)\nsummary(decoder,input_size=(img_size*img_size,130))\n\n==========================================================================================\nLayer (type:depth-idx)                   Output Shape              Param #\n==========================================================================================\nDecoder                                  [1024, 6]                 --\n├─Linear: 1-1                            [1024, 256]               33,536\n├─Linear: 1-2                            [1024, 256]               65,792\n├─Linear: 1-3                            [1024, 256]               65,792\n├─Linear: 1-4                            [1024, 256]               65,792\n├─Linear: 1-5                            [1024, 6]                 1,542\n==========================================================================================\nTotal params: 232,454\nTrainable params: 232,454\nNon-trainable params: 0\nTotal mult-adds (M): 238.03\n==========================================================================================\nInput size (MB): 0.53\nForward/backward pass size (MB): 8.44\nParams size (MB): 0.93\nEstimated Total Size (MB
…
  x = self.fc2(x)\n        x = self.relu(x)\n        x = self.fc3(x)\n        x = self.relu(x)\n        x = self.fc4(x)\n\n        # Reshape the output to match the 2D matrix size\n        x = x.view(-1, 80, 80)\n        \n        return x\n\n\nsummary(Autoencoder_MLP(), input_size=(1, 80, 80))\n\n==========================================================================================\nLayer (type:depth-idx)                   Output Shape              Param #\n==========================================================================================\nAutoencoder_MLP                          [1, 80, 80]               --\n├─Flatten: 1-1                           [1, 6400]                 --\n├─Linear: 1-2                            [1, 1024]                 6,554,624\n├─ReLU: 1-3                              [1, 1024]                 --\n├─Linear: 1-4                            [1, 512]                  524,800\n├─ReLU: 1-5                              [1, 512]                  --\n├─Linear: 1-6                            [1, 1024]                 525,312\n├─ReLU: 1-7                              [1, 1024]                 --\n├─Linear: 1-8                            [1, 6400]                 6,560,000\n==========================================================================================\nTotal params: 14,164,736\nTrainable params: 14,164,736\nNon-trainable params: 0\nTotal mult-adds (Units.MEGABYTES): 14.16\n==========================================================================================\nInput size (MB): 0.03\nForward/backward pass size (MB): 0.07\nParams size (MB): 56.66\nEstimated Total Size (MB): 56.76\n=========================================================================================="
…
_size=(3, 3), stride=(1, 1), padding=(1, 1))\n      (9): GELU(approximate='none')\n      (10): ConvTranspose2d(16, 2, kernel_size=(3, 3), stride=(2, 2), padding=(1, 1), output_padding=(1, 1))\n    )\n  )\n)\n\n\n\nfrom torchinfo import summary\nsummary(model_auto, input_size=(1656, 14, 80, 80))\n\n==========================================================================================\nLayer (type:depth-idx)                   Output Shape              Param #\n==========================================================================================\nAutoencoder_CNN                          [1656, 2, 80, 80]         --\n├─Encoder: 1-1                           [1656, 1024]              --\n│    └─Sequential: 2-1                   [1656, 1024]              --\n│    │    └─Conv2d: 3-1                  [1656, 16, 40, 40]        2,032\n│    │    └─GELU: 3-2                    [1656, 16, 40, 40]        --\n│    │    └─Conv2d: 3-3                  [1656, 16, 40, 40]        2,320\n│    │    └─GELU: 3-4                    [1656, 16, 40, 40]        --\n│    │    └─Conv2d: 3-5                  [1656, 32, 20, 20]        4,640\n│    │    └─GELU: 3-6                    [1656, 32, 20, 20]        --\n│    │    └─Conv2d: 3-7                  [1656, 32, 20, 20]        9,248\n│    │    └─GELU: 3-8                    [1656, 32, 20, 20]        --\n│    │    └─Conv2d: 3-9                  [1656, 64, 10, 10]        18,496\n│    │    └─GELU: 3-10                   [1656, 64, 10, 10]        --\n│    │    └─Flatten: 3-11                [1656, 6400]              --\n│    │    └─Linear: 3-12                 [1656, 1024]              6,554,624\n├─Decoder: 1-2                           [1656, 2, 80, 80]         --\n│    └─Sequential: 2-2                   [1656, 2, 80, 80]         --\n│    │    └─Linear: 3-13                 [1656, 6400]              6,560,000\n│    │    └─Unflatten: 3-14              [1656, 64, 10, 10]        --\n│    │    └─ConvTranspose2d: 3-15        [1656, 32, 20, 20]        18,464\n│    │    └─GELU: 3-16                   [1656, 32, 20, 20]        --\n│    │    └─Conv2d: 3-17                 [1656, 32, 20, 20]        9,248\n│    │    └─GELU: 3-18                   [1656, 32, 20, 20]        --\n│    │    └─ConvTranspose2d: 3-19        [1656, 16, 40, 40]        4,624\n│    │    └─GELU: 3-20                   [1656, 16, 40, 40]        --\n│    │    └─Conv2d: 3-21                 [1656, 16, 40, 40]        2,320\n│    │    └─GELU: 3-22                   [1656, 16, 40, 40]        --\n│    │    └─ConvTranspose2d: 3-23        [1656, 2, 80, 80]         290\n==========================================================================================\nTotal params: 13,186,306\nTrainable params: 13,186,306\nNon-trainable params: 0\nTotal mult-adds (Units.GIGABYTES): 85.34\n==========================================================================================\nInput size (MB): 593.51\nForward/backward pass size (MB): 2387.61\nParams size (MB): 52.75\nEstimated Total Size (MB): 3033.86\n==========================================================================================\n\n\n\nfrom torchsummary import summary\nsummary(model_auto, input_size=(14, 80, 80)) \n\n----------------------------------------------------------------\n        Layer (type)               Output Shape         Param #\n================================================================\n            Conv2d-1           [-1, 16, 40, 40]           2,032\n              GELU-2           [-1, 16, 40, 40]               0\n            Conv2d-3           [-1, 16, 40, 40]           2,320\n              GELU-4           [-1, 16, 40, 40]               0\n            Conv2d-5           [-1, 32, 20, 20]           4,640\n              GELU-6           [-1, 32, 20, 20]               0\n            Conv2d-7           [-1, 32, 20, 20]           9,248\n              GELU-8           [-1, 32, 20, 20]               0\n            Conv2d-9           [-1, 64, 10, 10]          18,496\n             GELU-10           [-1, 64, 10, 10]               0\n          Flatten-11                 [-1, 6400]               0\n           Linear-12                 [-1, 1024]       6,554,624\n          Encoder-13                 [-1, 1024]               0\n           Linear-14                 [-1, 6400]       6,560,000\n        Unflatten-15           [-1, 64, 10, 10]               0\n  ConvTranspose2d-16           [-1, 32, 20, 20]          18,464\n             GELU-17           [-1, 32, 20, 20]               0\n           Conv2d-18           [-1, 32, 20, 20]           9,248\n             GELU-19           [-1, 32, 20, 20]               0\n  ConvTranspose2d-20           [-1, 16, 40, 40]           4,624\n             GELU-21           [-1, 16, 40, 40]               0\n           Conv2d-22           [-1, 16, 40, 40]           2,320\n             GELU-23           [-1, 16, 40, 40]               0\n  ConvTranspose2d-24            [-1, 2, 80, 80]             290\n          Decoder-25            [-1, 2, 80, 80]               0\n================================================================\nTotal params: 13,186,306\nTrainable params: 13,186,306\nNon-trainable params: 0\n----------------------------------------------------------------\nInput size (MB): 0.34\nForward/backward pass size (MB): 2.80\nParams size (MB): 50.30\nEstimated Total Size (MB): 53.44\n----------------------------------------------------------------"
…
average_test_loss:.4f}\")\n\nplt.plot(range(1, num_epochs + 1), losses)\nplt.xlabel('Epoch')\nplt.ylabel('Loss')\n# plt.title('Train Loss vs. Epoch for channel '+target_var_96_list[x_channel])\nplt.grid(True) \nplt.show() \n\n(1324, 14, 80, 80) (332, 14, 80, 80) (1324, 2, 80, 80) (332, 2, 80, 80)\n==========================================================================================\nLayer (type:depth-idx)                   Output Shape              Param #\n==========================================================================================\nAutoencoder_CNN                          [1656, 2, 80, 80]         --\n├─Encoder: 1-1                           [1656, 2048]              --\n│    └─Sequential: 2-1                   [1656, 2048]              --\n│    │    └─Conv2d: 3-1                  [1656, 64, 40, 40]        8,128\n│    │    └─GELU: 3-2                    [1656, 64, 40, 40]        --\n│    │    └─Conv2d: 3-3                  [1656, 64, 40, 40]        36,928\n│    │    └─GELU: 3-4                    [1656, 64, 40, 40]        --\n│    │    └─Conv2d: 3-5                  [1656, 128, 20, 20]       73,856\n│    │    └─GELU: 3-6                    [1656, 128, 20, 20]       --\n│    │    └─Conv2d: 3-7                  [1656, 128, 20, 20]       147,584\n│    │    └─GELU: 3-8                    [1656, 128, 20, 20]       --\n│    │    └─Conv2d: 3-9                  [1656, 256, 10, 10]       295,168\n│    │    └─GELU: 3-10                   [1656, 256, 10, 10]       --\n│    │    └─Flatten: 3-11                [1656, 25600]             --\n│    │    └─Linear: 3-12                 [1656, 2048]              52,430,848\n├─Decoder: 1-2                           [1656, 2, 80, 80]         --\n│    └─Sequential: 2-2                   [1656, 2, 80, 80]         --\n│    │    └─Linear: 3-13                 [1656, 25600]             52,454,400\n│    │    └─Unflatten: 3-14              [1656, 256, 10, 10]       --\n│    │    └─ConvTranspose2d: 3-15        [1656, 128, 20, 20]       295,040\n│    │    └─GELU: 3-16                   [1656, 128, 20, 20]       --\n│    │    └─Conv2d: 3-17                 [1656, 128, 20, 20]       147,584\n│    │    └─GELU: 3-18                   [1656, 128, 20, 20]       --\n│    │    └─ConvTranspose2d: 3-19        [1656, 64, 40, 40]        73,792\n│    │    └─GELU: 3-20                   [1656, 64, 40, 40]        --\n│    │    └─Conv2d: 3-21                 [1656, 64, 40, 40]        36,928\n│    │    └─GELU: 3-22                   [1656, 64, 40, 40]        --\n│    │    └─ConvTranspose2d: 3-23        [1656, 2, 80, 80]         1,154\n==========================================================================================\nTotal params: 106,001,410\nTrainable params: 106,001,410\nNon-trainable params: 0\nTotal mult-adds (Units.TERABYTES): 1.09\n==========================================================================================\nInput size (MB): 593.51\nForward/backward pass size (MB): 9014.58\nParams size (MB): 424.0
…
90811157226562)\n('SWSFC_WpM2', 193.21996238014916)\n('PRATE_MMpH', 194.94017861106178)\n('PBL_YSU_M', 196.5285311612216)\n('TSURF_K', 196.80755892666903)\n('CLDTOP_KM', 205.47452198375356)\nLowest 3 names: ['V10_MpS', 'U10_MpS', 'SOLM_M3pM3']\n\n\n\nsummary(model, input_size=(1000, 1, 80, 80))\n\n==========================================================================================\nLayer (type:depth-idx)                   Output Shape              Param #\n==========================================================================================\nAutoencoder_CNN                          [1000, 1, 80, 80]         --\n├─Encoder: 1-1                           [1000, 512]               --\n│    └─Sequential: 2-1                   [1000, 512]               --\n│    │    └─Conv2d: 3-1                  [1000, 8, 40, 40]         80\n│    │    └─GELU: 3-2                    [1000, 8, 40, 40]         --\n│    │    └─Conv2d: 3-3                  [1000, 8, 40, 40]         584\n│    │    └─GELU: 3-4                    [1000, 8, 40, 40]         --\n│    │    └─Conv2d: 3-5                  [1000, 16, 20, 20]        1,168\n│    │    └─GELU: 3-6                    [1000, 16, 20, 20]        --\n│    │    └─Conv2d: 3-7                  [1000, 16, 20, 20]        2,320\n│    │    └─GELU: 3-8                    [1000, 16, 20, 20]        --\n│    │    └─Conv2d: 3-9                  [1000, 32, 10, 10]        4,640\n│    │    └─GELU: 3-10                   [1000, 32, 10, 10]        --\n│    │    └─Flatten: 3-11                [1000, 3200]              --\n│    │    └─Linear: 3-12                 [1000, 512]               1,638,912\n├─Decoder: 1-2                           [1000, 1, 80, 80]         --\n│    └─Sequential: 2-2                   [1000, 1, 80, 80]         --\n│    │    └─Linear: 3-13                 [1000, 3200]              1,641,600\n│    │    └─Unflatten: 3-14              [1000, 32, 10, 10]        --\n│    │    └─ConvTranspose2d: 3-15        [1000, 16, 20, 20]        4,624\n│    │    └─GELU: 3-16                   [1000, 16, 20, 20]        --\n│    │    └─Conv2d: 3-17                 [1000, 16, 20, 20]        2,320\n│    │    └─GELU: 3-18                   [1000, 16, 20, 20]        --\n│    │    └─ConvTranspose2d: 3-19        [1000, 8, 40, 40]         1,160\n│    │    └─GELU: 3-20                   [1000, 8, 40, 40]         --\n│    │    └─Conv2d: 3-21                 [1000, 8, 40, 40]         584\n│    │    └─GELU: 3-22                   [1000, 8, 40, 40]         --\n│    │    └─ConvTranspose2d: 3-23        [1000, 1, 80, 80]         73\n==========================================================================================\nTotal params: 3,298,065\nTrainable params: 3,298,065\nNon-trainable params: 0\nTotal mult-adds (Units.GIGABYTES): 12.24\n==========================================================================================\nInput size (MB): 25.60\nForward/backward pass size (MB): 720.90\nParams size (MB): 13.19\nEstimated Total Size (MB): 759.69\n=========================================================================================="
…
 {average_test_loss:.4f}\")\n\nplt.plot(range(1, num_epochs + 1), losses)\nplt.xlabel('Epoch')\nplt.ylabel('Loss')\n# plt.title('Train Loss vs. Epoch for channel '+target_var_96_list[x_channel])\nplt.grid(True) \nplt.show() \n\n(1324, 4, 80, 80) (332, 4, 80, 80) (1324, 2, 80, 80) (332, 2, 80, 80)\n==========================================================================================\nLayer (type:depth-idx)                   Output Shape              Param #\n==========================================================================================\nAutoencoder_CNN                          [1656, 2, 80, 80]         --\n├─Encoder: 1-1                           [1656, 2048]              --\n│    └─Sequential: 2-1                   [1656, 2048]              --\n│    │    └─Conv2d: 3-1                  [1656, 64, 40, 40]        2,368\n│    │    └─GELU: 3-2                    [1656, 64, 40, 40]        --\n│    │    └─Conv2d: 3-3                  [1656, 64, 40, 40]        36,928\n│    │    └─GELU: 3-4                    [1656, 64, 40, 40]        --\n│    │    └─Conv2d: 3-5                  [1656, 128, 20, 20]       73,856\n│    │    └─GELU: 3-6                    [1656, 128, 20, 20]       --\n│    │    └─Conv2d: 3-7                  [1656, 128, 20, 20]       147,584\n│    │    └─GELU: 3-8                    [1656, 128, 20, 20]       --\n│    │    └─Conv2d: 3-9                  [1656, 256, 10, 10]       295,168\n│    │    └─GELU: 3-10                   [1656, 256, 10, 10]       --\n│    │    └─Flatten: 3-11                [1656, 25600]             --\n│    │    └─Linear: 3-12                 [1656, 2048]              52,430,848\n├─Decoder: 1-2                           [1656, 2, 80, 80]         --\n│    └─Sequential: 2-2                   [1656, 2, 80, 80]         --\n│    │    └─Linear: 3-13                 [1656, 25600]             52,454,400\n│    │    └─Unflatten: 3-14              [1656, 256, 10, 10]       --\n│    │    └─ConvTranspose2d: 3-15        [1656, 128, 20, 20]       295,040\n│    │    └─GELU: 3-16                   [1656, 128, 20, 20]       --\n│    │    └─Conv2d: 3-17                 [1656, 128, 20, 20]       147,584\n│    │    └─GELU: 3-18                   [1656, 128, 20, 20]       --\n│    │    └─ConvTranspose2d: 3-19        [1656, 64, 40, 40]        73,792\n│    │    └─GELU: 3-20                   [1656, 64, 40, 40]        --\n│    │    └─Conv2d: 3-21                 [1656, 64, 40, 40]        36,928\n│    │    └─GELU: 3-22                   [1656, 64, 40, 40]        --\n│    │    └─ConvTranspose2d: 3-23        [1656, 2, 80, 80]         1,154\n==========================================================================================\nTotal params: 105,995,650\nTrainable params: 105,995,650\nNon-trainable params: 0\nTotal mult-adds (Units.TERABYTES): 1.07\n==========================================================================================\nInput size (MB): 169.57\nForward/backward pass size (MB): 9014.58\nParams size (MB): 423.9
…
_size=(3, 3), stride=(1, 1), padding=(1, 1))\n      (9): GELU(approximate='none')\n      (10): ConvTranspose2d(16, 2, kernel_size=(3, 3), stride=(2, 2), padding=(1, 1), output_padding=(1, 1))\n    )\n  )\n)\n\n\n\nfrom torchinfo import summary\nsummary(model_auto, input_size=(1656, 14, 80, 80))\n\n==========================================================================================\nLayer (type:depth-idx)                   Output Shape              Param #\n==========================================================================================\nAutoencoder_UNET                         [1656, 2, 80, 80]         --\n├─Encoder: 1-1                           --                        --\n│    └─Sequential: 2-1                   --                        --\n│    │    └─Conv2d: 3-1                  [1656, 16, 40, 40]        2,032\n│    │    └─GELU: 3-2                    [1656, 16, 40, 40]        --\n│    │    └─Conv2d: 3-3                  [1656, 16, 40, 40]        2,320\n│    │    └─GELU: 3-4                    [1656, 16, 40, 40]        --\n│    │    └─Conv2d: 3-5                  [1656, 32, 20, 20]        4,640\n│    │    └─GELU: 3-6                    [1656, 32, 20, 20]        --\n│    │    └─Conv2d: 3-7                  [1656, 32, 20, 20]        9,248\n│    │    └─GELU: 3-8                    [1656, 32, 20, 20]        --\n│    │    └─Conv2d: 3-9                  [1656, 64, 10, 10]        18,496\n│    │    └─GELU: 3-10                   [1656, 64, 10, 10]        --\n│    │    └─Flatten: 3-11                [1656, 6400]              --\n│    │    └─Linear: 3-12                 [1656, 1024]              6,554,624\n├─Decoder: 1-2                           --                        --\n│    └─Sequential: 2-2                   --                        --\n│    │    └─Linear: 3-13                 [1656, 6400]              6,560,000\n│    │    └─Unflatten: 3-14              [1656, 64, 10, 10]        --\n│    │    └─ConvTranspose2d: 3-15        [1656, 32, 20, 20]        18,464\n│    │    └─GELU: 3-16                   [1656, 32, 20, 20]        --\n│    │    └─Conv2d: 3-17                 [1656, 32, 20, 20]        9,248\n│    │    └─GELU: 3-18                   [1656, 32, 20, 20]        --\n│    │    └─ConvTranspose2d: 3-19        [1656, 16, 40, 40]        4,624\n│    │    └─GELU: 3-20                   [1656, 16, 40, 40]        --\n│    │    └─Conv2d: 3-21                 [1656, 16, 40, 40]        2,320\n│    │    └─GELU: 3-22                   [1656, 16, 40, 40]        --\n│    │    └─ConvTranspose2d: 3-23        [1656, 2, 80, 80]         290\n==========================================================================================\nTotal params: 13,186,306\nTrainable params: 13,186,306\nNon-trainable params: 0\nTotal mult-adds (Units.GIGABYTES): 85.34\n==========================================================================================\nInput size (MB): 593.51\nForward/backward pass size (MB): 2387.61\nParams size (MB): 52.75\nEstimated Total Size (MB): 3033.86\n==========================================================================================\n\n\n\nfrom torchsummary import summary\nsummary(model_auto, input_size=(14, 80, 80)) \n\n----------------------------------------------------------------\n        Layer (type)               Output Shape         Param #\n================================================================\n            Conv2d-1           [-1, 16, 40, 40]           2,032\n              GELU-2           [-1, 16, 40, 40]               0\n            Conv2d-3           [-1, 16, 40, 40]           2,320\n              GELU-4           [-1, 16, 40, 40]               0\n            Conv2d-5           [-1, 32, 20, 20]           4,640\n              GELU-6           [-1, 32, 20, 20]               0\n            Conv2d-7           [-1, 32, 20, 20]           9,248\n              GELU-8           [-1, 32, 20, 20]               0\n            Conv2d-9           [-1, 64, 10, 10]          18,496\n             GELU-10           [-1, 64, 10, 10]               0\n          Flatten-11                 [-1, 6400]               0\n           Linear-12                 [-1, 1024]       6,554,624\n           Linear-13                 [-1, 6400]       6,560,000\n        Unflatten-14           [-1, 64, 10, 10]               0\n  ConvTranspose2d-15           [-1, 32, 20, 20]          18,464\n             GELU-16           [-1, 32, 20, 20]               0\n           Conv2d-17           [-1, 32, 20, 20]           9,248\n             GELU-18           [-1, 32, 20, 20]               0\n  ConvTranspose2d-19           [-1, 16, 40, 40]           4,624\n             GELU-20           [-1, 16, 40, 40]               0\n           Conv2d-21           [-1, 16, 40, 40]           2,320\n             GELU-22           [-1, 16, 40, 40]               0\n  ConvTranspose2d-23            [-1, 2, 80, 80]             290\n================================================================\nTotal params: 13,186,306\nTrainable params: 13,186,306\nNon-trainable params: 0\n----------------------------------------------------------------\nInput size (MB): 0.34\nForward/backward pass size (MB): 2.69\nParams size (MB): 50.30\nEstimated Total Size (MB): 53.34\n----------------------------------------------------------------"
…
average_test_loss:.4f}\")\n\nplt.plot(range(1, num_epochs + 1), losses)\nplt.xlabel('Epoch')\nplt.ylabel('Loss')\n# plt.title('Train Loss vs. Epoch for channel '+target_var_96_list[x_channel])\nplt.grid(True) \nplt.show() \n\n(1324, 14, 80, 80) (332, 14, 80, 80) (1324, 2, 80, 80) (332, 2, 80, 80)\n==========================================================================================\nLayer (type:depth-idx)                   Output Shape              Param #\n==========================================================================================\nAutoencoder_UNET                         [1656, 2, 80, 80]         --\n├─Encoder: 1-1                           --                        --\n│    └─Sequential: 2-1                   --                        --\n│    │    └─Conv2d: 3-1                  [1656, 64, 40, 40]        8,128\n│    │    └─GELU: 3-2                    [1656, 64, 40, 40]        --\n│    │    └─Conv2d: 3-3                  [1656, 64, 40, 40]        36,928\n│    │    └─GELU: 3-4                    [1656, 64, 40, 40]        --\n│    │    └─Conv2d: 3-5                  [1656, 128, 20, 20]       73,856\n│    │    └─GELU: 3-6                    [1656, 128, 20, 20]       --\n│    │    └─Conv2d: 3-7                  [1656, 128, 20, 20]       147,584\n│    │    └─GELU: 3-8                    [1656, 128, 20, 20]       --\n│    │    └─Conv2d: 3-9                  [1656, 256, 10, 10]       295,168\n│    │    └─GELU: 3-10                   [1656, 256, 10, 10]       --\n│    │    └─Flatten: 3-11                [1656, 25600]             --\n│    │    └─Linear: 3-12                 [1656, 2048]              52,430,848\n├─Decoder: 1-2                           --                        --\n│    └─Sequential: 2-2                   --                        --\n│    │    └─Linear: 3-13                 [1656, 25600]             52,454,400\n│    │    └─Unflatten: 3-14              [1656, 256, 10, 10]       --\n│    │    └─ConvTranspose2d: 3-15        [1656, 128, 20, 20]       295,040\n│    │    └─GELU: 3-16                   [1656, 128, 20, 20]       --\n│    │    └─Conv2d: 3-17                 [1656, 128, 20, 20]       147,584\n│    │    └─GELU: 3-18                   [1656, 128, 20, 20]       --\n│    │    └─ConvTranspose2d: 3-19        [1656, 64, 40, 40]        73,792\n│    │    └─GELU: 3-20                   [1656, 64, 40, 40]        --\n│    │    └─Conv2d: 3-21                 [1656, 64, 40, 40]        36,928\n│    │    └─GELU: 3-22                   [1656, 64, 40, 40]        --\n│    │    └─ConvTranspose2d: 3-23        [1656, 2, 80, 80]         1,154\n==========================================================================================\nTotal params: 106,001,410\nTrainable params: 106,001,410\nNon-trainable params: 0\nTotal mult-adds (Units.TERABYTES): 1.09\n==========================================================================================\nInput size (MB): 593.51\nForward/backward pass size (MB): 9014.58\nParams size (MB): 424.0
…
n('CAPE', 191.70547346635297)\n('SNOWEW_M', 191.87428977272728)\n('T2_K', 192.4814786044034)\n('PBL_WRF_M', 192.72732405229047)\n('TSURF_K', 192.86672002618963)\n('PBL_YSU_M', 194.32039434259588)\n('SNOWAGE_HR', 198.26652665571734)\n('PRATE_MMpH', 199.35923628373578)\nLowest 3 names: ['U10_MpS', 'V10_MpS', 'SOLM_M3pM3']\n\n\n\nsummary(model, input_size=(1, 80, 80))\n\n----------------------------------------------------------------\n        Layer (type)               Output Shape         Param #\n================================================================\n            Conv2d-1            [-1, 8, 40, 40]              80\n              GELU-2            [-1, 8, 40, 40]               0\n            Conv2d-3            [-1, 8, 40, 40]             584\n              GELU-4            [-1, 8, 40, 40]               0\n            Conv2d-5           [-1, 16, 20, 20]           1,168\n              GELU-6           [-1, 16, 20, 20]               0\n            Conv2d-7           [-1, 16, 20, 20]           2,320\n              GELU-8           [-1, 16, 20, 20]               0\n            Conv2d-9           [-1, 32, 10, 10]           4,640\n             GELU-10           [-1, 32, 10, 10]               0\n          Flatten-11                 [-1, 3200]               0\n           Linear-12                  [-1, 512]       1,638,912\n           Linear-13                 [-1, 3200]       1,641,600\n        Unflatten-14           [-1, 32, 10, 10]               0\n  ConvTranspose2d-15           [-1, 16, 20, 20]           4,624\n             GELU-16           [-1, 16, 20, 20]               0\n           Conv2d-17           [-1, 16, 20, 20]           2,320\n             GELU-18           [-1, 16, 20, 20]               0\n  ConvTranspose2d-19            [-1, 8, 40, 40]           1,160\n             GELU-20            [-1, 8, 40, 40]               0\n           Conv2d-21            [-1, 8, 40, 40]             584\n             GELU-22            [-1, 8, 40, 40]               0\n  ConvTranspose2d-23            [-1, 1, 80, 80]              73\n================================================================\nTotal params: 3,298,065\nTrainable params: 3,298,065\nNon-trainable params: 0\n----------------------------------------------------------------\nInput size (MB): 0.02\nForward/backward pass size (MB): 1.35\nParams size (MB): 12.58\nEstimated Total Size (MB): 13.95\n----------------------------------------------------------------\n\n\n\nsummary(model, input_size=(1, 80, 80)) \n\n----------------------------------------------------------------\n        Layer (type)               Output Shape         Param #\n================================================================\n            Conv2d-1            [-1, 8, 40, 40]              80\n              GELU-2            [-1, 8, 40, 40]               0\n            Conv2d-3            [-1, 8, 40, 40]             584\n              GELU-4            [-1, 8, 40, 40]               0\n            Conv2d-5           [-1, 16, 20, 20]           1,168\n              GELU-6           [-1, 16, 20, 20]               0\n            Conv2d-7           [-1, 16, 20, 20]           2,320\n              GELU-8           [-1, 16, 20, 20]               0\n            Conv2d-9           [-1, 32, 10, 10]           4,640\n             GELU-10           [-1, 32, 10, 10]               0\n          Flatten-11                 [-1, 3200]               0\n           Linear-12                 [-1, 1024]       3,277,824\n          Encoder-13                 [-1, 1024]               0\n           Linear-14                 [-1, 3200]       3,280,000\n        Unflatten-15           [-1, 32, 10, 10]               0\n  ConvTranspose2d-16           [-1, 16, 20, 20]           4,624\n             GELU-17           [-1, 16, 20, 20]               0\n           Conv2d-18           [-1, 16, 20, 20]           2,320\n             GELU-19           [-1, 16, 20, 20]               0\n  ConvTranspose2d-20            [-1, 8, 40, 40]           1,160\n             GELU-21            [-1, 8, 40, 40]               0\n           Conv2d-22            [-1, 8, 40, 40]             584\n             GELU-23            [-1, 8, 40, 40]               0\n  ConvTranspose2d-24            [-1, 1, 80, 80]              73\n          Decoder-25            [-1, 1, 80, 80]               0\n================================================================\nTotal params: 6,575,377\nTrainable params: 6,575,377\nNon-trainable params: 0\n----------------------------------------------------------------\nInput size (MB): 0.02\nForward/backward pass size (MB): 1.41\nParams size (MB): 25.08\nEstimated Total Size (MB): 26.51\n----------------------------------------------------------------"
  },
…
 {average_test_loss:.4f}\")\n\nplt.plot(range(1, num_epochs + 1), losses)\nplt.xlabel('Epoch')\nplt.ylabel('Loss')\n# plt.title('Train Loss vs. Epoch for channel '+target_var_96_list[x_channel])\nplt.grid(True) \nplt.show() \n\n(1324, 4, 80, 80) (332, 4, 80, 80) (1324, 2, 80, 80) (332, 2, 80, 80)\n==========================================================================================\nLayer (type:depth-idx)                   Output Shape              Param #\n==========================================================================================\nAutoencoder_UNET                         [1656, 2, 80, 80]         --\n├─Encoder: 1-1                           --                        --\n│    └─Sequential: 2-1                   --                        --\n│    │    └─Conv2d: 3-1                  [1656, 64, 40, 40]        2,368\n│    │    └─GELU: 3-2                    [1656, 64, 40, 40]        --\n│    │    └─Conv2d: 3-3                  [1656, 64, 40, 40]        36,928\n│    │    └─GELU: 3-4                    [1656, 64, 40, 40]        --\n│    │    └─Conv2d: 3-5                  [1656, 128, 20, 20]       73,856\n│    │    └─GELU: 3-6                    [1656, 128, 20, 20]       --\n│    │    └─Conv2d: 3-7                  [1656, 128, 20, 20]       147,584\n│    │    └─GELU: 3-8                    [1656, 128, 20, 20]       --\n│    │    └─Conv2d: 3-9                  [1656, 256, 10, 10]       295,168\n│    │    └─GELU: 3-10                   [1656, 256, 10, 10]       --\n│    │    └─Flatten: 3-11                [1656, 25600]             --\n│    │    └─Linear: 3-12                 [1656, 2048]              52,430,848\n├─Decoder: 1-2                           --                        --\n│    └─Sequential: 2-2                   --                        --\n│    │    └─Linear: 3-13                 [1656, 25600]             52,454,400\n│    │    └─Unflatten: 3-14              [1656, 256, 10, 10]       --\n│    │    └─ConvTranspose2d: 3-15        [1656, 128, 20, 20]       295,040\n│    │    └─GELU: 3-16                   [1656, 128, 20, 20]       --\n│    │    └─Conv2d: 3-17                 [1656, 128, 20, 20]       147,584\n│    │    └─GELU: 3-18                   [1656, 128, 20, 20]       --\n│    │    └─ConvTranspose2d: 3-19        [1656, 64, 40, 40]        73,792\n│    │    └─GELU: 3-20                   [1656, 64, 40, 40]        --\n│    │    └─Conv2d: 3-21                 [1656, 64, 40, 40]        36,928\n│    │    └─GELU: 3-22                   [1656, 64, 40, 40]        --\n│    │    └─ConvTranspose2d: 3-23        [1656, 2, 80, 80]         1,154\n==========================================================================================\nTotal params: 105,995,650\nTrainable params: 105,995,650\nNon-trainable params: 0\nTotal mult-adds (Units.TERABYTES): 1.07\n==========================================================================================\nInput size (MB): 169.57\nForward/backward pass size (MB): 9014.58\nParams size (MB): 423.9
…
